…
          [ 0.0000,  0.0000,  0.0000,  ...,  0.0000,  0.0000,  0.0000],
          ...,
          [ 0.0000,  0.0000,  0.0000,  ...,  0.0000,  0.0000,  0.0000],
          [ 0.0000,  0.0000,  0.0000,  ...,  0.0000,  0.0000,  0.0000],
          [ 0.0000,  0.0000,  0.0000,  ...,  0.0000,  0.0000,  0.0000]]]],
       device='cuda:0')
> /home/christina/Documents/climsim_ds/models/architectures/conv_lstm_diff.py(150)forward()
-> out = self.nn[1](out)
> /home/christina/Documents/climsim_ds/models/architectures/conv_lstm_diff.py(151)forward()
-> return out
torch.Size([32, 16, 32, 64])
*** AttributeError: 'GatedConvNet' object has no attribute 'net'
Sequential(
  (0): Conv3d(2, 32, kernel_size=(3, 3, 3), stride=(1, 1, 1), padding=(1, 1, 1))
  (1): GatedConv(
    (net): Sequential(
      (0): Conv3d(32, 32, kernel_size=(3, 3, 3), stride=(1, 1, 1), padding=(1, 1, 1))
      (1): ConcatRELU()
      (2): Conv3d(32, 32, kernel_size=(1, 1, 1), stride=(1, 1, 1))
    )
  )
  (2): InstanceNorm3dChannel(
    (instance_norm): InstanceNorm3d(32, eps=1e-05, momentum=0.1, affine=False, track_running_stats=False)
  )
  (3): GatedConv(
    (net): Sequential(
      (0): Conv3d(32, 32, kernel_size=(3, 3, 3), stride=(1, 1, 1), padding=(1, 1, 1))
      (1): ConcatRELU()
      (2): Conv3d(32, 32, kernel_size=(1, 1, 1), stride=(1, 1, 1))
    )
  )
  (4): InstanceNorm3dChannel(
    (instance_norm): InstanceNorm3d(32, eps=1e-05, momentum=0.1, affine=False, track_running_stats=False)
  )
  (5): GatedConv(
    (net): Sequential(
      (0): Conv3d(32, 32, kernel_size=(3, 3, 3), stride=(1, 1, 1), padding=(1, 1, 1))
      (1): ConcatRELU()
      (2): Conv3d(32, 32, kernel_size=(1, 1, 1), stride=(1, 1, 1))
    )
  )
  (6): InstanceNorm3dChannel(
    (instance_norm): InstanceNorm3d(32, eps=1e-05, momentum=0.1, affine=False, track_running_stats=False)
  )
  (7): ConcatRELU()
  (8): Conv3d(64, 1, kernel_size=(3, 3, 3), stride=(1, 1, 1), padding=(1, 1, 1))
)
*** RuntimeError: Given groups=1, weight of size [32, 2, 3, 3, 3], expected input[1, 16, 2, 32, 64] to have 2 channels, but got 16 channels instead
Conv3d(64, 1, kernel_size=(3, 3, 3), stride=(1, 1, 1), padding=(1, 1, 1))
Sequential(
  (0): Conv3d(2, 32, kernel_size=(3, 3, 3), stride=(1, 1, 1), padding=(1, 1, 1))
  (1): GatedConv(
    (net): Sequential(
      (0): Conv3d(32, 32, kernel_size=(3, 3, 3), stride=(1, 1, 1), padding=(1, 1, 1))
      (1): ConcatRELU()
      (2): Conv3d(32, 32, kernel_size=(1, 1, 1), stride=(1, 1, 1))
    )
  )
  (2): InstanceNorm3dChannel(
    (instance_norm): InstanceNorm3d(32, eps=1e-05, momentum=0.1, affine=False, track_running_stats=False)
  )
  (3): GatedConv(
    (net): Sequential(
      (0): Conv3d(32, 32, kernel_size=(3, 3, 3), stride=(1, 1, 1), padding=(1, 1, 1))
      (1): ConcatRELU()
      (2): Conv3d(32, 32, kernel_size=(1, 1, 1), stride=(1, 1, 1))
    )
  )
  (4): InstanceNorm3dChannel(
    (instance_norm): InstanceNorm3d(32, eps=1e-05, momentum=0.1, affine=False, track_running_stats=False)
  )
  (5): GatedConv(
    (net): Sequential(
      (0): Conv3d(32, 32, kernel_size=(3, 3, 3), stride=(1, 1, 1), padding=(1, 1, 1))
      (1): ConcatRELU()
      (2): Conv3d(32, 32, kernel_size=(1, 1, 1), stride=(1, 1, 1))
    )
  )
  (6): InstanceNorm3dChannel(
    (instance_norm): InstanceNorm3d(32, eps=1e-05, momentum=0.1, affine=False, track_running_stats=False)
  )
  (7): ConcatRELU()
  (8): Conv3d(64, 1, kernel_size=(3, 3, 3), stride=(1, 1, 1), padding=(1, 1, 1))
)
InstanceNorm3dChannel(
  (instance_norm): InstanceNorm3d(32, eps=1e-05, momentum=0.1, affine=False, track_running_stats=False)
)
*** NameError: name 'sel' is not defined
*** RuntimeError: Given groups=1, weight of size [1, 64, 3, 3, 3], expected input[1, 32, 32, 32, 64] to have 64 channels, but got 32 channels instead
  0%|                                                                                                                         | 0/18627 [06:09<?, ?it/s]
…
